checkpoint.pth (torch, 22566 bytes, 6 tensors)

fc1.weight f4 [64, 8]
000000 3e 24 aa 3e 42 f0 36 3e ec 3b 03 be d2 99 c7 3f
       0.33230776 0.17865089 -0.12815827 1.5593817
000010 79 24 c6 3e b1 b7 66 bf 53 af 51 bf 46 4d 57 3e
       0.386997 -0.9012404 -0.8190815 0.21025571
000020 66 ee 76 3f a7 fb 55 be ee f3 00 3f 78 53 70 be
       0.9645752 -0.20896779 0.5037221 -0.23469341
000030 e5 9e 15 3f 58 0d 84 3e 9f d3 e3 3e 70 5f 95 3e
       0.5844558 0.2579143 0.44497392 0.29174376
000040 d8 06 41 3f 21 7b 80 be 8b 60 e3 3d 37 0f d2 be
       0.7540107 -0.2509394 0.111023985 -0.41027233
000050 fa 70 18 3f 82 35 cd be 39 5c f5 be ca 05 93 3e
       0.5954739 -0.40079886 -0.47921923 0.28715354
000060 f2 b2 a1 bf 3c b6 64 bf 3a 10 b3 be 7f 09 73 bf
       -1.2632735 -0.8934057 -0.34973317 -0.94936365
000070 3f 84 28 3f ec 24 99 3e 6d 5d a8 bd 7c de 12 3d
       0.6582679 0.29910982 -0.082209446 0.03585671
000080 38 df 29 3e 10 a0 93 bd 10 fe 66 be 00 fa 19 3f
       0.16589057 -0.07208264 -0.22557855 0.60147095
000090 4c aa 5f 3e 85 6a 4e 3f d2 b4 42 3f 0b 93 b0 be
       0.21842307 0.80631286 0.7605716 -0.34487185
0000a0 be 41 e4 be 4b 3a f7 3e 9b 88 2f 3e 20 54 d9 3e
       -0.44581407 0.48286662 0.17141955 0.42446995
0000b0 f5 46 92 be a4 ad fe be 4f 61 db 3e f9 54 17 3f
       -0.2856976 -0.49741852 0.42847678 0.59114033
0000c0 10 0f 8a be 41 15 43 c0 05 31 0f bf eb f7 ec bf
       -0.26964617 -3.0481722 -0.5593417 -1.8513159
0000d0 f0 6a 96 bd 46 9e 3b 3e 18 3e f2 3e 46 ab bd 3e
       -0.073446155 0.18322095 0.47313 0.37044734
0000e0 1a 89 96 bd 29 95 48 be 5d 16 85 3f 3c d5 b3 3e
       -0.07350369 -0.1958815 1.039745 0.35123622
0000f0 9f f2 b8 be 53 1e 9e 3c d0 dd da 3e 93 dc 42 3e
       -0.36122605 0.01930157 0.42747355 0.19029455
000100 86 65 eb 3d a2 a3 13 bf e0 db 3b 3f 05 b9 81 3f
       0.114939734 -0.5767156 0.7338238 1.0134588
000110 f0 b1 5d be c9 d9 3a be 09 f7 0c 3f 7f c8 81 3e
       -0.21649909 -0.18247141 0.55064446 0.2534828
000120 60 d2 24 3e 82 c8 d0 bf 97 c3 46 bf e2 f2 86 bf
       0.16095877 -1.631119 -0.77642196 -1.0542872
000130 ed 77 15 3e 42 15 d0 be 08 48 a8 3e 1a c6 e7 bd
       0.1459653 -0.40641218 0.32867455 -0.11317082
000140 e4 15 90 be d1 2c 9b be 38 9e 51 bf 73 2a 1d be
       -0.281417 -0.3030763 -0.8188205 -0.15348224
000150 2c ec 80 3f 59 e1 09 be 8f 14 04 3f fc ef 86 bc
       1.0072074 -0.1346487 0.5159387 -0.016471855
000160 5d cf 22 3d 07 6c 4c 3e 3d 99 ca be a9 7c 03 bf
       0.03974854 0.19963084 -0.39570037 -0.5136209
000170 39 60 6c be 5b ab 97 3f 3b f2 89 be c3 8b 80 bf
       -0.23083581 1.1849169 -0.2694262 -1.0042652
000180 2f f8 6f 3e 24 a7 58 3e a5 f1 0d be 9c 35 07 bf
       0.23434518 0.21157509 -0.13861711 -0.52816176
000190 32 63 46 bf ee 90 44 3f 70 1d b0 3e 31 ff 91 be
       -0.7749511 0.76783645 0.3439746 -0.28515008
0001a0 35 ca 9e bf 8f 9d 47 3e 6e 33 13 be 59 c3 1e bf
       -1.2405459 0.19493698 -0.14375088 -0.62016827
0001b0 e6 0d 10 bf d0 7f 07 be 14 b1 4d 3e c7 89 fa 3d
       -0.5627121 -0.1323235 0.20087081 0.1223331
0001c0 f9 7c bc bd 2a af 5f 3d 56 c4 2a bf 6d 4a 30 bf
       -0.09203524 0.05461041 -0.66705835 -0.68863565
0001d0 b4 ad 0a 3f 7e ea 1a bf 39 47 67 bf 74 b6 4f bf
       0.541713 -0.60514057 -0.9034305 -0.81137776
0001e0 34 a0 b6 be 5d 12 1b bf 80 36 f2 3e d8 fc 41 bf
       -0.356691 -0.60574895 0.47307205 -0.75776434
0001f0 c9 4b 70 bf 24 0a 3f be c9 fb 28 bf fd d1 85 be
       -0.9386564 -0.18656212 -0.66009194 -0.2613677
000200 56 ab 9a 3f 31 50 82 3e ff ea 44 3f e9 0a a9 be
       1.2083538 0.25451806 0.76921076 -0.33016136
000210 b1 28 ad 3e 50 98 88 3e 87 df 2a 3d 06 e4 05 3d
       0.33820108 0.26678705 0.04171708 0.032688163
000220 ad 9a 0a bf f5 8b 89 be 1c 68 a3 3d 7f c1 65 bf
       -0.54142267 -0.2686459 0.07978842 -0.89748377
000230 02 76 0d bf eb c3 7b bd af 0b a7 3e d6 d4 5f be
       -0.5525819 -0.06146614 0.326261 -0.21858534
000240 e8 5d 17 bd c7 d0 d5 bd eb ef 61 3e 87 eb be bd
       -0.03695479 -0.10440212 0.22064178 -0.09322267
000250 8c c4 12 40 1e 87 10 3f f1 fe dc 3e c0 e2 12 3e
       2.2932463 0.5645617 0.43163255 0.14344311
000260 47 a6 da 3d b9 4a 1d bf d6 44 fd be 7d a9 81 3d
       0.10676246 -0.6144214 -0.4946658 0.063311554
000270 06 74 4c 3f e0 b0 80 3e 43 d8 8b 3e 0f f0 a8 be
       0.7986454 0.25134945 0.27313432 -0.3299565
000280 6a 82 eb bd fa 93 4e 3e 27 6b 93 3d 1a 8b 7c bf
       -0.11499484 0.20173636 0.07198172 -0.9864975
000290 3c fd 15 3f 17 f4 b6 3d 42 23 16 3d bf 35 a6 3e
       0.5858953 0.08933275 0.03665472 0.3246288
0002a0 71 95 9e 3e 1e 52 44 be 61 1e b9 be 07 f4 72 3e
       0.3097339 -0.1917195 -0.3615599 0.23725902
0002b0 03 b9 79 3f d7 ce 8b be 9b 33 9d 3e 58 73 a6 bd
       0.9754793 -0.27306244 0.30703434 -0.08127469
0002c0 44 8a 3c be 89 94 45 be 32 bc 06 bf fb f5 bc bf
       -0.18412119 -0.19294943 -0.52630913 -1.4762567
0002d0 24 f1 1d 3f dc 55 ab 3f 80 ff 38 3f 64 31 9f be
       0.61696076 1.3385577 0.7226486 -0.3109237
0002e0 74 79 18 3f 46 29 6f be af 05 11 3f fb fb cc be
       0.5956032 -0.23355588 0.566493 -0.40035996
0002f0 7b e5 3e bf be c3 ca bd 01 93 44 3e 7e 67 ff 3d
       -0.7456891 -0.09900616 0.19196703 0.124709114
000300 af fe 3a 3e ce 72 ee 3e d0 85 56 bf c4 1d 2f be
       0.18261217 0.46571964 -0.8379793 -0.17101198
000310 97 76 c5 3e 94 37 b1 bd d7 31 c8 be 73 9b ac be
       0.3856704 -0.08653179 -0.39100525 -0.33712348
000320 5e fa be 3e a2 b0 16 3e 92 79 37 3e 5f 78 61 3e
       0.3730039 0.14715818 0.17917469 0.22018574
000330 28 ff b6 bf b3 e9 4a bf 9c 79 92 bf 5e 2f 8d bf
       -1.4296618 -0.79262847 -1.1443362 -1.103008
000340 36 9e 25 3e 61 6f 91 3e dd ac a3 bd 5d 9e 44 be
       0.16173634 0.28405288 -0.079919554 -0.19201036
000350 12 78 1e be c1 64 82 bf ff cf 69 be 1b 82 1d 3f
       -0.1547549 -1.0186998 -0.2283325 0.6152665
000360 fb b3 90 be 54 66 9a bf f6 82 0a 3e f0 21 c9 bf
       -0.28262314 -1.2062478 0.1352652 -1.5713482
000370 13 8e db 3e eb 5a e7 be f8 f1 a1 bf 6c 8c c2 be
       0.42881832 -0.45186552 -1.2651968 -0.37997758
000380 f7 ad fe 3c 82 55 a2 be 73 1f 1f 3d e1 b7 a2 be
       0.031088812 -0.31705862 0.03884835 -0.31780913
000390 a8 c1 f7 be a7 e4 95 bf 33 a7 2d bf 65 d9 fa 3e
       -0.48389935 -1.1710404 -0.6783325 0.48993984
0003a0 0e ac ca bd 66 ae 84 3f 34 57 47 3f 86 8c 6f 3e
       -0.09896098 1.0365722 0.77867436 0.23393449
0003b0 f5 f4 9c 3e bf 2f 70 bf 92 96 0e bf eb ef 84 3d
       0.30655637 -0.93822855 -0.556985 0.06491073
0003c0 0f 1e bb bc 2b 29 84 be 10 e6 77 3e b5 c8 69 be
       -0.022841481 -0.2581266 0.24208856 -0.2283047
0003d0 24 6b 5e bf 41 37 34 bf 24 2a 85 bf 1d 6d 1e 3f
       -0.86882234 -0.7039681 -1.0403485 0.61885244
0003e0 3f 06 21 be 3f 93 a8 3e 40 78 3e 3e fc dc 7b bf
       -0.15725039 0.3292484 0.18600559 -0.9838407
0003f0 3d 22 c4 3f 06 75 07 3f 59 86 cf 3e b3 27 33 be
       1.5322949 0.5291294 0.40532187 -0.17495613

fc1.bias f4 [64]
000000 28 19 22 3f 3b be 3b bd 9b c5 11 bf db 93 0a 3b
       0.63319635 -0.045835715 -0.56942147 0.0021145258
000010 f3 a0 00 3f 40 33 24 be 38 39 68 3f 9c 85 b0 be
       0.5024559 -0.16035175 0.9071231 -0.34476936
000020 b6 55 c9 be 18 c4 23 3d 6d 5e 6d bd a3 ee ed 3b
       -0.39323205 0.03998193 -0.05795138 0.0072611137
000030 b3 06 76 3f d2 92 0e bd 70 f9 d3 bd b0 6c 6e 3d
       0.9610397 -0.034807988 -0.10350311 0.05820912
000040 04 c1 be bd 2b 1a 75 3c 7f 5f c0 3e 5f 66 dc 3e
       -0.093141586 0.014959852 0.37572858 0.43046853
000050 71 92 90 3d 13 5b d2 3e 5c 71 3e bc 49 e3 3f bd
       0.070591815 0.4108511 -0.011623707 -0.046847615
000060 1b 57 26 bf 87 af 39 3e 91 cc a7 be 3a d8 c8 3e
       -0.6497666 0.18133365 -0.3277326 0.39227468
000070 91 f0 32 bd 11 d4 93 3e 22 d9 51 bd 8c ac 15 3e
       -0.043686453 0.2887273 -0.051232465 0.14616603
000080 b8 f8 b2 3e c9 a5 cd bc 1f 87 fa bc f5 f7 84 3e
       0.34955382 -0.025103467 -0.030582009 0.25970426
000090 16 ae 24 3e ce f7 b9 be e2 75 86 3d 8c 98 12 bf
       0.16082034 -0.36321872 0.06565453 -0.5726402
0000a0 83 a7 eb 3b 00 5a d2 3e a2 d2 46 3e 19 47 6b be
       0.0071916 0.4108429 0.19416288 -0.2297634
0000b0 c8 ac 8b 3e f9 a0 51 bd 13 56 d1 3e b3 fc 9b 3f
       0.2728026 -0.051178906 0.40885982 1.2186493
0000c0 6e dc c8 3e 71 ed 5a 3f f4 39 26 3e 05 47 eb be
       0.39230675 0.85518557 0.16233045 -0.4595262
0000d0 ec 00 94 be c8 3c 3c be 82 39 f7 3a 0a 42 f0 3e
       -0.28906953 -0.18382561 0.0018861743 0.46925384
0000e0 89 85 34 be b8 6a 37 be 19 2d 05 be e2 b7 33 bf
       -0.17629065 -0.17911804 -0.13005485 -0.7020246
0000f0 48 d5 12 bd 31 0a b7 3e 13 2c 3d 3f f9 1b da bb
       -0.035847932 0.35749963 0.73895377 -0.0066561666

fc2.weight f4 [64, 64]
000000 5f fb 2d bd 9a 54 50 3d 1c 9b 7c bd e7 60 81 bd
       -0.042476054 0.050861932 -0.06167136 -0.06317311
000010 cc bf 4b 3d 79 93 ff bd f8 5c 46 bc 1f 49 b9 3d
       0.04974346 -0.124793 -0.012107126 0.0904715
000020 18 8f c2 3a 70 25 d7 3b f0 6c 9d bd bf 58 58 bc
       0.0014843671 0.006565742 -0.07686794 -0.0132047525
000030 d2 2d a7 bc 43 d0 2f 3c f0 73 ea 3c da 95 b5 3d
       -0.020407591 0.010730806 0.028619736 0.088664725
000040 cb 42 ec bd cb bc 84 bc 54 d0 7f bd 0a 89 01 be
       -0.11536177 -0.016203305 -0.062454537 -0.12649933
000050 64 f2 19 bd 41 13 f9 bd a6 6a 75 3d 36 61 b3 bb
       -0.037584677 -0.121618755 0.05991616 -0.005474235
000060 28 f9 89 bd 60 83 4a 3d 48 9e fa bd 81 ec 9a bd
       -0.06736976 0.049441695 -0.12237221 -0.07564641
000070 90 7e c7 bc 07 0f fa bd 2c a5 cb bd e0 48 25 bd
       -0.024352342 -0.122098975 -0.099436134 -0.040352702
000080 25 62 99 3d c3 df ee 3d 7a 0b 74 3d 2d 60 b1 bd
       0.07489423 0.11663773 0.059581257 -0.08660922
000090 3d 57 d0 bd d2 68 df 3d f2 c8 8b 3c 86 58 05 bc
       -0.101728894 0.10908665 0.017063592 -0.008138781
0000a0 cc 7f 8b 3a e1 9a f6 bd 08 f3 2a bd fe 91 cd 3d
       0.0010642945 -0.120412596 -0.04173568 0.100376114
0000b0 9e fb 2c bd af 97 90 bc 6a 17 f5 bd a1 11 b8 bd
       -0.04223215 -0.017650453 -0.119673565 -0.089877374
0000c0 ca 85 f4 bc a0 e0 c7 bd c0 f8 7d bc 20 37 21 3d
       -0.029848952 -0.09759641 -0.015501201 0.039359212
0000d0 04 32 09 be 04 0e 16 3c f0 44 a9 bd d4 e1 79 bd
       -0.13397986 0.009158615 -0.08265102 -0.061006382
0000e0 a1 ae e5 3c ea 11 9a 3d 3a e5 3a bd 1c 36 52 bd
       0.028037371 0.07522948 -0.045628764 -0.051321134
0000f0 14 2c 08 be b5 dd ac bd 48 6a 08 be 30 d9 05 bd
       -0.13298064 -0.08440725 -0.13321793 -0.03267783
000100 86 44 b5 bf 95 0b a8 3e a7 99 b0 3f c8 b4 49 3f
       -1.4161537 0.32821336 1.3796891 0.78791475
000110 bd 95 21 3e e2 3c 7e be 65 df a3 be 46 27 a9 3d
       0.15779777 -0.24827912 -0.32006374 0.08259444
000120 07 31 9c 3c f7 ca 7a be 95 86 12 3f 67 76 cf bd
       0.019066347 -0.24491487 0.57236606 -0.10130005
000130 ff 79 ce 3b cd 1f c3 3e 20 03 cc bd be 04 4c 3f
       0.006301164 0.381102 -0.099615335 0.79694736
000140 d2 7c 3d 3f 69 5a 04 3e fb 4f 80 bf 85 e8 32 3e
       0.74018586 0.12925114 -1.0024408 0.17471512
000150 df 3a 10 3e fd 74 53 bd 23 9c ed be 64 99 37 3e
       0.14084958 -0.05162524 -0.46408185 0.17929608
000160 26 22 06 be 75 f0 d2 3e 5c 77 df 3e 55 a7 2f bf
       -0.13098964 0.4119908 0.4364575 -0.68614703
000170 88 7e 13 3f af 9a e9 be 65 ec 0a 3f 49 76 16 bf
       0.57614946 -0.45625827 0.5426696 -0.5877424
000180 e7 8a 62 bd ed f6 42 3f d9 d0 a2 be 34 09 11 3f
       -0.05530825 0.7615803 -0.31799963 0.5665467
000190 3d ae 80 3e 11 9f 7d 3f f2 ab cc 3d 53 3b b9 3e
       0.25132933 0.9907084 0.099937335 0.36178073
0001a0 d9 2c af 3e 15 80 43 3e d3 ed dd be e0 ed 8c 3f
       0.34213904 0.19091828 -0.43345508 1.1010094
0001b0 8a 28 7e 3e 9b 33 55 bc 95 4d 74 bf 89 41 e4 bc
       0.24820152 -0.013012792 -0.9543088 -0.02786328
0001c0 82 d4 4b 3e aa e9 02 3e 53 93 43 bf a9 18 af 3e
       0.19905284 0.12784448 -0.76396674 0.34198502
0001d0 36 5f 56 3f ab e5 cf 3f 37 b0 6a 3f 5c c7 3d 3f
       0.8373903 1.6241964 0.9167513 0.74132323
0001e0 67 42 97 3f 5f 23 d2 bb 87 7c 4c 3e 0f bb 0b 3f
       1.1817139 -0.006412908 0.19969378 0.54582304
0001f0 ca cd 40 bd 6b df 04 bf 95 2b 38 bd 65 c1 6f 3f
       -0.047071256 -0.5190341 -0.044963438 0.9365447
000200 ba 55 e5 3f b8 06 1d bf bc f5 c5 bf 49 98 ae bf
       1.7916787 -0.61338377 -1.5465617 -1.3640224
000210 43 a4 7f be 56 66 de bd e3 02 43 3f aa 44 0c bf
       -0.24965005 -0.10859363 0.7617628 -0.54792273
000220 07 a7 52 be 74 24 cb 3e b1 a7 4c be 7a 66 79 be
       -0.20571528 0.3967625 -0.19985844 -0.24355498
000230 3d dd 3d 3f ad 8d ed be ac c9 fc be 06 d8 67 bf
       0.7416571 -0.46397153 -0.49372613 -0.90564
000240 fa 6d 46 bf a9 b4 c4 be 76 01 66 3f f0 41 41 3d
       -0.7751156 -0.38419083 0.8984598 0.047182024
000250 cd 87 c6 be fb 8b 41 3e 47 a3 04 3f c8 60 5d bf
       -0.38775483 0.18901055 0.5181164 -0.864758
000260 5c a2 6f 3e bd 9c 08 c0 a8 df b8 be 06 05 06 3f
       0.23401779 -2.1345665 -0.36108136 0.52351415
000270 da 8a 4b bf 26 bd a4 3f 6e c9 c7 bf 92 f5 36 3f
       -0.79508746 1.2870224 -1.5608346 0.7146846
000280 b1 04 b7 3d 20 60 16 3f 75 fb 86 3f 24 82 3f 3d
       0.08936442 0.58740425 1.0545489 0.04675497
000290 3b c5 43 3f d7 1f a6 bf 8b 95 1c 3f a9 70 a9 be
       0.76472825 -1.2978467 0.61165684 -0.33093765
0002a0 90 b7 a1 bf 8e 68 9e bc 21 59 bc 3f a5 26 70 bf
       -1.2634144 -0.019336965 1.47147 -0.93808967
0002b0 b5 4d 76 be d8 a7 61 3e 0a b8 13 3f 95 67 0b 3f
       -0.2405308 0.22036684 0.57702696 0.5445493
0002c0 d4 6b 98 be 55 c7 01 3f 63 74 bd 3f 2f 59 95 be
       -0.29769766 0.5069478 1.4801143 -0.29169604
0002d0 e2 2f 59 bf ea 1f db bf 18 fd 63 bf be 28 4d bf
       -0.8483869 -1.7119114 -0.89058065 -0.8014029
0002e0 3d 95 be bf bc e3 91 be 56 60 dc be a5 e9 17 c0
       -1.4889294 -0.2849406 -0.43042248 -2.3736355
0002f0 75 22 0d bf 27 a0 5f 3f 85 30 21 3f 73 2d ca bf
       -0.551307 0.8735375 0.6296466 -1.579512
000300 b3 4b 84 bf d5 6e 34 3f c4 07 97 3f d1 f4 45 3f
       -1.0335602 0.70481616 1.1799245 0.77326685
000310 73 b6 89 3e aa b3 42 3d 6b 95 ed be fd 4e 81 3e
       0.2689701 0.047534622 -0.4640306 0.25255576
000320 eb 4c 68 3e f6 e7 6e be 6b a9 cb 3e d5 09 41 3e
       0.22685592 -0.23330674 0.39777693 0.18851407
000330 39 84 73 3d 0e 93 9e 3e 53 8f 88 be ad a7 0d 3f
       0.05945227 0.3097157 -0.26671848 0.5533398
000340 a8 ea 47 3f 25 22 94 bd b9 68 4f bf 4a f5 58 3e
       0.7809243 -0.07233075 -0.8101917 0.2118732
000350 fb d2 bb 3e 7b b4 7c 3e 8f b3 c0 be b0 d2 a0 3e
       0.36684403 0.24678223 -0.37636992 0.31410742
000360 0e 45 85 be 5a f5 25 3f f9 fe cd 3e 43 6e 82 bf
       -0.26029247 0.648275 0.4023359 -1.0189899
000370 e5 02 f7 3e 28 de 16 bf 4b 07 13 3f 04 dd e7 be
       0.48244396 -0.58932734 0.57433003 -0.4528581
000380 21 50 c8 bd 63 20 fa 3e 3d 56 23 bf 5a 61 0c 3f
       -0.097809084 0.48852834 -0.63803464 0.54836047
000390 18 d1 e2 3d cd ea 7a 3f 94 f0 a7 3e 2b e7 42 3f
       0.11075038 0.9801453 0.32800734 0.76133984
0003a0 0b f6 01 3f bc 8d 85 3e 90 7e 94 bf 48 34 4f 3f
       0.50766057 0.26084697 -1.1601124 0.8093915
0003b0 f1 9f c4 3e bd d3 88 bc f1 63 16 be 53 20 3b 3e
       0.38403276 -0.016702527 -0.14686562 0.1827405
0003c0 61 e9 05 3f c3 5d c1 3e 1c c9 ad bf d6 b2 ad 3e
       0.5230923 0.37766847 -1.3576999 0.33925503
0003d0 f4 84 52 3f c7 b2 be 3f 8e de e5 3e e1 36 21 3f
       0.8223412 1.4898309 0.44896358 0.62974364
0003e0 04 28 56 3f c5 36 37 be 14 39 ee 3e d2 2f 2b 3f
       0.8365481 -0.17891987 0.46527922 0.66869843
0003f0 d3 d6 16 3e 8f b0 cc be f6 29 7f 3e d7 26 f4 3e
       0.14730386 -0.39978454 0.2491835 0.47685882

fc2.bias f4 [64]
000000 32 79 3f 3d 06 50 7c be 7f 9b 4c 3f 1d d9 1d bd
       0.04674644 -0.24639902 0.7992477 -0.038537133
000010 87 34 98 be 98 e5 bd 3d ec 17 a9 bd bc 1a 46 be
       -0.29727575 0.09272307 -0.08256516 -0.19346136
000020 59 e6 98 3d cf 09 1f 3d 86 ce 48 be 17 5a 43 be
       0.0746581 0.038827714 -0.19610032 -0.19077335
000030 f1 6d 6e 3e 36 4f c8 bd 0f 64 e3 bd 8e 1a ef 3e
       0.23284127 -0.09780733 -0.11103069 0.46699947
000040 c0 48 04 be 7a 59 a4 bd 28 e0 60 bf e6 4d bb be
       -0.12918377 -0.08024879 -0.87842035 -0.3658287
000050 57 d5 42 be f8 36 b1 bd 6c 1b 49 3f 27 ba 4d 3f
       -0.19026695 -0.086530626 0.7855747 0.8036217
000060 ff fe 3a bd 07 2a f6 3e 37 2e 48 3e e4 fd 44 be
       -0.04565334 0.4807894 0.1954888 -0.19237477
000070 81 5d b6 3e ce fa 6e be 58 ae 63 be 7c 40 d0 bd
       0.35618213 -0.23337862 -0.22234476 -0.101685494
000080 e4 71 26 3d c6 b7 8b bd 0a 5c bf 3e ed f9 4e bd
       0.04063596 -0.068221614 0.37374908 -0.050531317
000090 87 e7 9d 3e d9 9d 7a 3b 12 99 6c 3d a8 6b 87 be
       0.30840704 0.0038241057 0.057763167 -0.26449323
0000a0 a1 48 ee be ae 96 60 be 02 07 0d be fb 32 54 3e
       -0.46539786 -0.2193248 -0.13772205 0.20722573
0000b0 b7 46 01 3f 9e 20 ef be be b3 49 be d7 26 7b 3f
       0.5049853 -0.46704572 -0.19697472 0.9810614
0000c0 43 c2 86 3e d6 6b a6 3d 73 0a 1d be ce 0c 0f 3f
       0.26320085 0.08126037 -0.15336017 0.55878913
0000d0 b9 1e 9c be a8 6a 9c 3d f3 fe a5 bc 83 4d 2c 3c
       -0.3049219 0.076375306 -0.02026317 0.010516527
0000e0 5b 59 3c 3b a5 68 65 3c a2 55 44 be 54 38 af 3d
       0.0028739783 0.014002 -0.19173291 0.085556656
0000f0 8c e1 91 bc 57 ac e7 bd 95 b2 a6 3f 0c fd 75 3f
       -0.017807744 -0.11312168 1.3023249 0.96089244

fc3.weight f4 [4, 64]
000000 2a 1b 93 3d 6a 44 6f bf c5 26 a0 3f 78 b2 19 bf
       0.071829155 -0.93463767 1.2511832 -0.60037947
000010 32 6a 22 bf 46 f4 be 3f a0 1c cf bb 47 29 91 bf
       -0.6344329 1.4918296 -0.006320551 -1.1340722
000020 e3 46 1f bf 38 06 39 bf 53 57 0d bf ff e3 03 bf
       -0.6221754 -0.72275114 -0.5521137 -0.5151977
000030 b1 08 ad 3b c5 09 a8 3d 2b 58 0e bf 3a b8 1d bf
       0.005280577 0.082049884 -0.55603284 -0.6160923
000040 60 82 ab bc a3 de bb be e6 65 f1 3c b3 19 11 bf
       -0.020936191 -0.36693296 0.029467534 -0.5667984
000050 1f 0b 7e bf fc 5f f0 be 3a 30 a2 3f 57 a7 de 3f
       -0.9923572 -0.4694823 1.2670968 1.7394818
000060 b9 84 7e bf 9d 51 2b bf 37 26 25 bf 87 29 81 bf
       -0.9942127 -0.66921407 -0.64511436 -1.0090798
000070 30 13 08 40 b3 72 d2 be 2c e7 00 bf ab c9 dc be
       2.126171 -0.41103134 -0.5035274 -0.4312261
000080 a7 b2 a5 3c 61 c3 ad 3f a1 88 3b 3f 55 13 5a bf
       0.02022679 1.357525 0.73255354 -0.8518575
000090 98 f9 e8 be c8 b8 9c be 38 ad d6 be 3a 18 71 bf
       -0.45502925 -0.30609727 -0.4192903 -0.9417759
0000a0 87 b2 4e 40 b6 83 f1 be c0 60 89 bd 18 9b 76 3f
       3.2296464 -0.471708 -0.06707907 0.96330404
0000b0 f0 30 e7 3f 7e f8 cb bd b5 e8 89 bf da 37 02 40
       1.806181 -0.099595055 -1.0774142 2.034659
0000c0 7b 1a 1c bf e9 2f 05 bf 93 f6 e2 be cb cc 3a bf
       -0.60977906 -0.5202623 -0.44328746 -0.7296874
0000d0 95 58 38 bf 37 16 1c bf a1 66 05 3e 66 d4 c7 bc
       -0.72010165 -0.609714 0.13027431 -0.024393272
0000e0 a6 97 ec be 91 24 97 bf 9f 34 e8 be f1 87 d1 bc
       -0.4620945 -1.1808034 -0.45352647 -0.025577517
0000f0 14 89 2d bd f8 c7 35 bf ad 85 21 c0 94 06 fd 3f
       -0.042367056 -0.71008253 -2.523784 1.9767632
000100 ac 54 9c bd f5 2b 0a bf c5 a1 62 3f c6 2c a8 be
       -0.076333374 -0.53973323 0.8852809 -0.3284666
000110 44 09 cf be 5c c7 b4 3f f4 e1 31 3d 15 bf 7f bf
       -0.40436757 1.412334 0.043428376 -0.99900943
000120 ef d4 8a be 4f c1 61 be 72 39 21 bf ad be 97 be
       -0.2711558 -0.22046398 -0.6297828 -0.29637662
000130 67 fa 44 be 16 27 72 bc d2 17 03 bf 3f ae 69 bf
       -0.19236146 -0.014779827 -0.5120822 -0.91281503
000140 96 d9 df 3d ab 00 42 bf 5b 5d d0 be d9 4a fb be
       0.10930173 -0.7578227 -0.40696225 -0.49080542
000150 d1 b0 71 bf c2 d5 0f bf 97 80 aa 3f 42 ea c0 3f
       -0.94410425 -0.56185544 1.3320493 1.507149
000160 e1 92 46 bf 52 1e 9b bf d2 49 52 bf ab 4c 88 bf
       -0.7756787 -1.2118628 -0.8214389 -1.0648397
000170 76 d7 f8 3f 38 ee ef be 69 3e d1 bf da 0b d5 be
       1.9440753 -0.46861434 -1.6347171 -0.41610605
000180 f4 83 12 bd f4 32 d1 3f 7c 4a b4 3f de 85 4b bf
       -0.03577037 1.6343675 1.4085231 -0.7950114
000190 86 fe 3c 3c f7 d9 aa be 36 a7 0d bf 6f 8c d1 bf
       0.0115352925 -0.3336942 -0.5533327 -1.6370982
0001a0 b8 8f 57 40 0e 0f 2e bf 37 d3 d5 3d a8 d3 6c 3f
       3.368147 -0.6799172 0.10440677 0.9251046
0001b0 75 e0 d0 3f aa 77 94 be 36 48 43 bf 8a 75 28 40
       1.6318499 -0.28997546 -0.7628206 2.632174
0001c0 ee 68 4e bf 89 1e d1 be 54 0b 0f bf 8d 37 a4 bf
       -0.8062886 -0.4084361 -0.5587666 -1.2829453
0001d0 e8 2d c8 be 76 6c 9c be 55 aa 4e 3e f6 40 e6 3d
       -0.39097524 -0.305515 0.20182164 0.11242859
0001e0 ff 0f 28 bf 21 6b 04 bf 83 d6 cf be ab 1c 24 3d
       -0.6564941 -0.51725966 -0.40593347 0.040066402
0001f0 a4 5b b1 bc dd 34 fd be 8f a1 11 c0 57 ce ff 3f
       -0.021650143 -0.49454394 -2.2754858 1.9984845
000200 74 ac bd 3d 4a b0 77 bf 78 60 0c 40 69 3a ff be
       0.092614084 -0.9675337 2.193388 -0.4984925
000210 3c 35 b2 bf f0 83 cd 3f fb f1 56 3d 44 57 0b 3f
       -1.3922496 1.6055889 0.052476864 0.5443003
000220 a4 18 cb be 84 8c 01 bf 1a 17 4a bf be 13 04 bf
       -0.39667237 -0.50605035 -0.789415 -0.51592624
000230 48 0f b5 3f c5 70 af 3d e1 6c 83 be e7 6d 43 bf
       1.4145288 0.08566431 -0.25669006 -0.7633957
000240 26 d8 73 3d 87 c0 69 bf 4d 2c 9d bf 04 c3 fb be
       0.059532307 -0.913094 -1.2279145 -0.49172223
000250 9e 5c 62 bf d3 0f f8 be 6b 73 ec 3d 01 c5 cf 3f
       -0.8842257 -0.48449573 0.11545452 1.6231996
000260 92 92 d0 be 0b 74 83 bf d0 05 cb be 7e 24 1d bf
       -0.40736824 -1.0269789 -0.39652872 -0.6138381
000270 82 f3 93 3f 42 53 c8 be 86 58 fd bb f0 9b a5 be
       1.1558688 -0.3912602 -0.0077315 -0.32345533
000280 1a b1 6d 3d 3b a5 1b 40 94 d2 37 3f 9f b5 5f bf
       0.058030225 2.4319599 0.7180569 -0.87386507
000290 09 19 0b bf 7c 24 f1 be e8 e8 0f bf 60 9e 82 3e
       -0.54335076 -0.47098148 -0.5621476 0.25511456
0002a0 b2 e3 6a 40 3d 9d 19 bf e4 4b ce 3d cd a7 46 3e
       3.6701474 -0.6000555 0.10073069 0.19399948
0002b0 9d 00 00 40 7a 5f ca bf b9 da 37 bf 89 e2 ec 3f
       2.0000374 -1.5810387 -0.7181812 1.8506633
0002c0 0b 8c 27 bf 14 a5 45 be b1 13 2a bf 22 7b 8a bf
       -0.65448064 -0.19301254 -0.66436297 -1.0818827
0002d0 38 28 81 bf f1 33 2d bf ca d1 e7 3f 10 98 55 bd
       -1.0090399 -0.6765738 1.8110898 -0.05214697
0002e0 0c 91 20 bf 91 d3 db bf 18 48 bb be f0 67 ba 3d
       -0.62721324 -1.717394 -0.3657844 0.09101856
0002f0 38 43 bc 3c fc 85 07 bf 83 b7 1f c0 cb 35 e4 3f
       0.022981271 -0.5293882 -2.4955757 1.7828916
000300 f2 35 c7 3d 08 06 97 bf a2 50 c6 3f d5 97 26 bf
       0.09727086 -1.1798716 1.5493357 -0.6507543
000310 4d 1f 89 bf ee 59 d6 3f d8 23 06 bd 0c 6f 85 bf
       -1.0712677 1.6746194 -0.032749027 -1.0424514
000320 3f eb 1b bf f2 52 02 bf 09 72 27 bf 78 8b 23 bf
       -0.6090583 -0.50907815 -0.6540838 -0.6388469
000330 ef ed dc be f7 5c af 3d 7d 05 08 bf 99 fa 66 bf
       -0.4315028 0.085626535 -0.53133374 -0.9022613
000340 c3 cb 69 3d 2c 74 87 be c4 9c 4b 3d 5c 24 08 bf
       0.057079088 -0.2645582 0.04971005 -0.5318048
000350 c6 31 17 bf cc 3a 29 bf 9a 67 fb 3f 3f ff ec 3f
       -0.59060323 -0.6610534 1.9640992 1.8515395
000360 90 db 95 bf 40 7a e2 be 63 33 48 bf 32 89 fd be
       -1.170763 -0.44233894 -0.7820341 -0.49518734
000370 85 2f 1a 40 26 12 f7 be b5 f9 0d bf aa 7d 0d bf
       2.4091504 -0.48256034 -0.5545915 -0.55269873
000380 1e 7e 27 3c 76 6f c8 3f 17 96 e2 bc 1f 95 ea be
       0.01022294 1.5659015 -0.027659459 -0.45816895
000390 95 0b 49 bf 62 cf 2b bf 2c df 14 bf a8 12 68 be
       -0.785333 -0.67113316 -0.58153033 -0.22663367
0003a0 d4 ad 43 40 71 4e 0b bf a2 05 bc bd 04 b5 71 3f
       3.0574846 -0.5441657 -0.09180762 0.9441683
0003b0 61 58 0a 40 d9 3e 22 bf 6e a9 87 bf b0 8b db 3f
       2.1616442 -0.6337715 -1.0598581 1.7152004
0003c0 2a cf 64 be b4 af ec be 3a 68 1e bf d5 65 1a bf
       -0.22344652 -0.462278 -0.6187779 -0.60311633
0003d0 76 ec 4b bf c4 7d 21 bf cc 0c 72 bf 86 40 e4 bd
       -0.79657686 -0.6308253 -0.94550776 -0.11145119
0003e0 34 48 f7 be bc 57 20 bf 54 03 14 bf ed 42 c8 bd
       -0.48297274 -0.6263387 -0.5781758 -0.0977839
0003f0 94 e5 c5 3d ae 8b e8 be 96 32 2e c0 3e 7c ec 3f
       0.09662929 -0.45419067 -2.7218375 1.8475416

fc3.bias f4 [4]
000000 58 49 0d 3e c0 b4 2f 3d b8 dc d8 3e f5 12 2a 3e
       0.1379751 0.042896986 0.42355895 0.16608794
